models/LeNet.pth (torch, 249711 bytes, 10 tensors)

conv1.weight f4 [6, 1, 5, 5]
000000 42 1c 2c 3e f7 94 ac 3b 5a fa 27 be 71 03 4a bb
       0.16807655 0.0052667814 -0.16404095 -0.0030824805
000010 4f 29 9e 3d f3 7f 96 3e c8 63 85 3d ce 27 d8 be
       0.07722723 0.29394493 0.065131724 -0.4221787
000020 46 5b a0 be bc b1 86 bd fa 25 b9 3d a0 7d 46 bd
       -0.31319636 -0.06576869 0.090404466 -0.04845965
000030 99 19 d7 3d 21 99 42 3b 0a 91 21 3e 4e 66 80 bd
       0.10502929 0.0029693323 0.15777984 -0.06269513
000040 24 07 8c 3e 1d 61 9e 3e ce 88 ec 3d 06 0f a9 3d
       0.27349198 0.30933467 0.11549531 0.082548186
000050 81 e8 44 3b a2 04 31 3c f5 1d 10 be bb 8f 49 bd
       0.003004581 0.010804327 -0.14073928 -0.049209338
000060 61 d3 5c bd 9b da 1a be 2f 9d 44 be 5e 82 fa be
       -0.053912524 -0.15122454 -0.19200586 -0.48927587
000070 a8 c4 77 3c d2 d3 c3 3d 15 83 b1 3d 69 f9 2c 3e
       0.01512257 0.09561886 0.0866758 0.16892017
000080 e2 9a 9a be 8d fb a1 3c 41 2d 9d 38 e5 eb 64 3c
       -0.3019629 0.01977327 7.4947726e-05 0.013972257
000090 7a 0c 4f 3d da 1f 9f bd 06 04 2c 3c 13 67 27 3c
       0.050549008 -0.07769747 0.010499006 0.010217446
0000a0 00 14 55 3d 3d 3d 0a 3e fc 24 99 bc 10 f9 40 3e
       0.052021027 0.13499923 -0.018694393 0.1884501
0000b0 21 ad 02 be 81 6d 97 3e 42 ed b1 3e 9d 2a 59 3e
       -0.12761356 0.29575732 0.34751326 0.21207662
0000c0 a1 17 a2 3e cf 70 ef 3c 8a cf fa ba 77 70 39 3e
       0.31658652 0.029228596 -0.0019135338 0.18109308
0000d0 7b ad cb 3d ba 71 15 3e 03 59 b3 bd d6 85 a9 3e
       0.09945198 0.14594164 -0.08757212 0.3310992
0000e0 ef 93 8e 3e 07 b1 e0 bd 88 35 57 3b a6 33 c5 3d
       0.2784724 -0.10971265 0.0032838304 0.09628992
0000f0 bb c4 70 bc 4a 05 66 3e 55 24 74 3e 33 0f fc bd
       -0.014695342 0.22462955 0.23841985 -0.123075865
000100 db b8 78 be 88 83 ef bd 74 ec 29 be 27 d0 a2 3e
       -0.24289267 -0.116950095 -0.16594106 0.31799433
000110 6e e0 4a 3e 33 65 e1 bd df 80 d0 be 45 c5 5f bc
       0.19812176 -0.1100563 -0.4072332 -0.013657873
000120 5c 5e 96 3b 9b 3d f1 3d 76 fc 95 bd 75 5f 0f be
       0.004588885 0.117793284 -0.07323544 -0.14001258
000130 28 5a 04 be f1 5e 40 3d 2c 01 7f 3e f7 a6 b8 3d
       -0.12925017 0.046965543 0.24902791 0.09016221
000140 39 48 af bd 69 ac 8e be 75 45 0f 3e b3 0b d1 3c
       -0.08558697 -0.27865914 0.1399134 0.025518274
000150 ba b1 84 3e a7 d3 8e be d6 b1 37 bd d9 1d 49 3e
       0.25916845 -0.27895853 -0.044847332 0.19640292
000160 92 dd a2 3e 62 65 90 3e 50 b5 25 be 17 92 1b 3e
       0.3180967 0.2820235 -0.16182446 0.15192448
000170 00 a5 3f 3e 79 ea 83 3e 08 74 00 3e 71 2e 7d 3d
       0.18715286 0.25764826 0.12544262 0.061811868
000180 b5 a2 9c 3e 88 de 9e 3e de 58 3f 3e 73 7e ba bd
       0.30592886 0.31029153 0.18686244 -0.091061495
000190 82 86 0e 3d c4 45 37 3e b4 85 90 3e 2f 26 81 3e
       0.034796245 0.17897707 0.28227007 0.25224444
0001a0 c3 ec 04 3e 5d 2f 39 be 51 f2 b2 be 99 7b 9f be
       0.12980942 -0.18084474 -0.34950498 -0.31148985
0001b0 5b 22 c3 bd c8 9c 51 3d 5d 18 5b be 76 0a 89 be
       -0.09528037 0.05117491 -0.21396013 -0.26765794
0001c0 c6 be b2 be af e2 b2 be 95 c5 4b be 65 e8 52 3e
       -0.34911174 -0.3493857 -0.1989959 0.20596464
0001d0 7f 45 ae 3d 33 0b ab bc 7c 10 ab 3d f3 f7 b0 bd
       0.08509349 -0.020879364 0.083527535 -0.086410426
0001e0 a7 6b a8 3e 68 01 81 3e d5 64 b9 3e e4 7b a6 3d
       0.32894632 0.25196385 0.3620974 0.08129099
0001f0 b0 23 00 3e 24 34 11 3e ca 28 b3 bd 64 13 28 be
       0.12513614 0.14180046 -0.08748014 -0.16413647
000200 2a 4b c6 be 5f 81 20 bd 7a fa 91 3d fa 5a 8a be
       -0.3872922 -0.039185878 0.07127853 -0.27022535
000210 9c a2 67 be 05 d5 7b be a4 e3 9c 3e ca 5e 25 be
       -0.22620624 -0.24592979 0.30642426 -0.1614944
000220 59 3d 50 be 92 5f a4 be 57 0d 3b 3d 0b ee aa 3e
       -0.20335902 -0.32104164 0.04566702 0.33384737
000230 85 51 06 be 5b cb 82 be 5f 6b f1 3b df e7 18 3e
       -0.13117035 -0.25545773 0.007367536 0.14932202
000240 ac fc 09 3e 87 6d 3a be 2b 3c b8 bd 76 b0 06 be
       0.13475293 -0.18205844 -0.08995851 -0.13153252
000250 9a 0b 1d 3e 22 c0 4f 3e
       0.15336457 0.20288137

conv1.bias f4 [6]
000000 8b 66 56 3e a1 06 cc 3d bd b0 18 3c 40 c7 23 3e
       0.20937555 0.09962202 0.009319481 0.15993977
000010 0d e0 38 3e bb 57 bb 3d
       0.18054219 0.09147593

conv2.weight f4 [16, 6, 5, 5]
000000 70 28 20 bd 40 75 a9 3d c3 30 d2 3d 4f f2 53 bd
       -0.039101064 0.08274317 0.10263207 -0.051744755
000010 6a a5 39 3d 44 f9 b2 3d 68 74 e9 3d 45 b7 32 3e
       0.045323767 0.0873895 0.11399156 0.17452724
000020 dc ff 10 3e 38 d9 b9 3d b0 5a 00 be ca 9e 45 be
       0.14160103 0.09074634 -0.12534595 -0.19298854
000030 9a 2c 1f be 69 a0 0a bd 72 d1 d4 3d 2c 8c a6 bd
       -0.15544358 -0.033844385 0.10391511 -0.081322044
000040 62 13 ac bd 04 cb 38 be a8 4a 59 bd 94 c8 90 3d
       -0.084021345 -0.18046194 -0.053049713 0.07069507
000050 55 19 2a 3e fc eb d9 bd d1 0f 2a be b8 8b 42 bd
       0.16611226 -0.106407136 -0.16607596 -0.047496527
000060 a8 dd 8e 3d 4c 5e 42 3b 37 49 1e 3e 7d c5 f3 3d
       0.06975871 0.0029658256 0.15457617 0.11902902
000070 51 87 31 3e 9f 98 a5 3d 8d 78 0a be 22 f4 7b 3c
       0.17336775 0.08085751 -0.13522549 0.01537803
000080 55 83 b8 bd eb 0b 65 3d b6 10 1c 3e c0 97 70 bd
       -0.090094246 0.05591957 0.1524075 -0.05873847
000090 0f c5 a8 bd a7 17 70 be cb ee 1c be 37 df f4 bb
       -0.08240711 -0.23446523 -0.15325467 -0.0074728983
0000a0 48 2f 2b 3c 6d d0 91 bd 00 ab f3 bd ef f6 72 bd
       0.010448284 -0.07119832 -0.1189785 -0.059317525
0000b0 c1 c5 c1 bb 05 8a ad 3d 06 88 c5 3d f8 81 58 3d
       -0.0059134667 0.08473591 0.09645085 0.052858323
0000c0 b5 28 25 bd 4f 72 9e bd 18 af ac 3d ad e4 a4 3d
       -0.040322024 -0.077366464 0.08431834 0.08051429
0000d0 46 11 e6 3c 5e c1 2b be 57 5a 21 be d8 23 4a bd
       0.028084408 -0.16772982 -0.15757118 -0.04935059
0000e0 9a 71 a7 3c d1 f1 ad 3d 34 b7 03 3e a8 b6 90 3d
       0.020439912 0.084933884 0.12862855 0.07066089
0000f0 7b 27 4b bd 79 c0 a9 3b 9b 27 19 3e 66 e3 0e 3e
       -0.0495982 0.005180415 0.14956515 0.13953933
000100 0d 53 0f 3e 63 37 af bd ba a3 4a be ef 34 09 be
       0.13996525 -0.08555486 -0.19789019 -0.13399099
000110 7d a1 44 3d a3 55 cf 3d 1a 72 61 3d 91 b4 60 be
       0.04800557 0.10123756 0.055040456 -0.2194388
000120 cc ef 96 3b 11 6b d2 bd f9 ca 05 bd 5d 0d 4e bd
       0.0046062227 -0.102743275 -0.032664273 -0.050305713
000130 57 9d eb bc ea 85 81 bd 70 fd 8b bc b0 80 31 3c
       -0.028761549 -0.0632437 -0.017088622 0.010833904
000140 d8 69 50 bd fb 49 91 3d 82 85 f1 3c 96 ba 64 bd
       -0.05088219 0.07094189 0.029482607 -0.055842005
000150 3e bd 66 bd 4a 15 39 bd 87 f1 b5 bd 91 37 40 bd
       -0.05633282 -0.04518632 -0.08883958 -0.046927992
000160 de ae e0 3d a5 5e 82 3d e5 64 10 bd c5 80 cc bd
       0.10970853 0.06365708 -0.03525247 -0.09985498
000170 39 59 b1 3d 2b a1 3e 3d 75 1c c6 bd 91 a6 fd 3d
       0.08659596 0.04654042 -0.096733965 0.12385286
000180 7e 2b 83 bb 7d 1b e8 bc b2 3e 51 3d 68 2a 5e bd
       -0.0040029874 -0.02833342 0.05108518 -0.05423966
000190 42 b4 f9 3c 77 9f 11 3e f3 44 71 3e e1 b4 6d 3e
       0.030481461 0.14220987 0.23561458 0.23213531
0001a0 e0 db 52 3e ed 2a 43 3d ab 0a 40 3d 37 04 73 3d
       0.20591688 0.04764836 0.046885174 0.05933019
0001b0 78 7d d2 3d b6 1d 0a 3e 8c 17 3d 3d 5c 98 3c 3e
       0.102778375 0.13487896 0.046165034 0.18417495
0001c0 1e fd 02 3e 39 a4 0c 3e 4a ed a2 3d a8 a0 cc 3d
       0.12791869 0.13734521 0.079554155 0.0999158
0001d0 92 95 a9 3c f9 23 3f 3d cf 21 10 3d 87 5f 8a bd
       0.020701203 0.046665166 0.035188492 -0.06756502
0001e0 87 66 20 be 42 97 d3 bd 5c b3 43 bd ba 64 93 bd
       -0.15664111 -0.103315845 -0.047778472 -0.071969464
0001f0 dd e1 10 be b8 9e 05 3a 6d 90 07 be 87 3e 25 be
       -0.1414866 0.00050971983 -0.13238688 -0.16137134
000200 a5 ae ad bd 74 83 49 bd 8c c8 07 be 65 52 27 be
       -0.084805764 -0.04919763 -0.13260096 -0.16340025
000210 e3 8a 78 be 69 dd 82 be 1a b4 df bd d6 a6 89 3d
       -0.24271731 -0.25559548 -0.109230235 0.067212746
000220 ba 17 d9 bd e7 e1 90 bd 57 97 bc bd 93 d2 6c bc
       -0.106002286 -0.070743375 -0.09208553 -0.014454502
000230 27 6c 1d 3e b8 9c 4f 3d 78 f9 3e 3c d7 a4 c4 3c
       0.15373288 0.050686568 0.011656158 0.024004383
000240 90 f0 94 3d 2b a5 4c 3e 38 06 39 3e bd 09 02 3d
       0.07272446 0.19984882 0.18068779 0.03174757
000250 6d b9 a5 3d fb 77 0b 3d 00 42 2a bd ca 4f 3a bb
       0.08092008 0.03404997 -0.04156685 -0.0028428906
000260 7b 5f 99 3c 52 f6 08 3e ce 3a 49 3d cc 1c 83 3c
       0.018722286 0.13375214 0.049128346 0.016004942
000270 c3 0d ba 3d d3 91 cb 3d 96 98 9a bd 8f cc 07 bc
       0.09084656 0.09939923 -0.07548635 -0.008288517
000280 1b de 39 3d b6 d4 2c be 77 4e 9e bd 07 3b 32 be
       0.045377832 -0.16878018 -0.0772981 -0.1740533
000290 99 3d 86 bd 7b 6f 10 be 38 4f 08 be d9 f5 81 bd
       -0.065547176 -0.14105026 -0.1331147 -0.0634572
0002a0 c8 61 86 bd 7d 0b d2 3c e2 d2 82 bd 23 66 e8 bc
       -0.06561619 0.025640244 -0.06387879 -0.028369015
0002b0 1f c8 23 bc 58 ec 11 3d 78 02 9f bd ef c0 7f bb
       -0.009996443 0.035625786 -0.07764143 -0.003902491
0002c0 0d d6 81 3d 12 a6 9b bb cf fb 7d 3d d6 b0 b2 3d
       0.06339655 -0.0047500217 0.06200772 0.08725135
0002d0 88 8b cb bd a6 43 0f be d9 a8 76 bd d7 8a 5e be
       -0.09938723 -0.1399065 -0.06021962 -0.2173265
0002e0 3b 8b 56 bd e6 51 b5 bd 52 91 71 be 87 ad 93 bd
       -0.052378874 -0.088535115 -0.23590592 -0.07210832
0002f0 48 80 6a bd d0 33 c1 3c e7 78 1d be 2c 2c 37 3c
       -0.057251245 0.023584276 -0.15378152 0.011179965
000300 61 62 17 3e 6a 6d 4f 3c 24 f9 68 3c 89 25 0b 3d
       0.14783622 0.012660364 0.014219556 0.033971343
000310 f7 67 39 3d 11 2b a2 3d ac 18 86 3d 6e bb 31 bd
       0.045265164 0.079183705 0.065476745 -0.043391638
000320 a6 ca ec 3d a1 05 02 3c 2b f3 6d bd 1d 84 78 b9
       0.115620896 0.007935912 -0.05809323 -0.00023700339
000330 9a d5 9b 3d c5 86 82 3d 60 9e 81 3a fa 79 42 bd
       0.07609101 0.063733615 0.0009889118 -0.047479607
000340 42 55 bf 3c 99 cc d6 3d 29 7f c6 3d aa 96 86 bd
       0.023356084 0.10488243 0.096922226 -0.06571706
000350 82 88 9a 3b 11 a7 8c bd 01 61 27 bd 68 2c 5a be
       0.00471598 -0.06867803 -0.040863995 -0.21306002
000360 d2 89 92 be 6f 9a 60 be ee af 47 be 44 ee cf bd
       -0.28620774 -0.21933912 -0.19500706 -0.101528674
000370 44 b9 70 be df 91 41 be 33 e9 be bd 2d 34 d1 3c
       -0.23508173 -0.18903302 -0.09321823 0.025537575
000380 61 43 c6 3a 5e a4 00 3e 6c b5 81 3d 17 8c 3e bd
       0.0015126282 0.12562701 0.063334316 -0.04652032
000390 da c1 35 bc 35 ea 6e 3d ff 23 c2 3d 5f 1a 47 bd
       -0.011093581 0.058328826 0.09479522 -0.048609134
0003a0 5d e1 e0 bc 49 ba c4 bc 5d 78 66 bc b6 a0 32 be
       -0.027451212 -0.024014609 -0.014066783 -0.17444119
0003b0 23 de 1d be 40 11 e0 bd ea 0a a0 bc a6 3e c1 3d
       -0.1541677 -0.1094079 -0.019536454 0.09435777
0003c0 be 1f 45 be 67 f5 7c bd 33 53 2b 3d b6 9b f6 3d
       -0.1925039 -0.06175747 0.04182739 0.12041418
0003d0 09 dd 3c 3d b0 8b ec 3d 73 e5 1d 3e 22 b7 43 3d
       0.046109233 0.11550081 0.15419559 0.04778207
0003e0 aa 06 59 3d 96 73 05 bd dc c1 10 be 45 94 1c be
       0.05298487 -0.032580934 -0.14136451 -0.15290935
0003f0 6d 83 38 3d b6 99 42 3d 35 80 84 3d 7e 48 4e be
       0.045047212 0.04750987 0.06469766 -0.20144841

conv2.bias f4 [16]
000000 1a 1f f1 3c 40 5a 39 bc 65 54 d1 bc c2 44 4f 3d
       0.029433776 -0.011313021 -0.025552938 0.050602682
000010 c4 b0 38 3d da a3 31 3d 0a ee 28 bb e1 84 0e 3d
       0.04509045 0.04336915 -0.0025776648 0.034794692
000020 8c ec d3 3b 4f 83 5f 3c 05 4d 6a bc 55 1e 84 3d
       0.0064674076 0.013642146 -0.014300589 0.06451098
000030 c9 08 7a 3d 81 de 93 3c 97 fa 6d 3d af 56 8d 3d
       0.061043534 0.018050434 0.05810031 0.06901299

fc1.weight f4 [120, 400]
000000 76 77 87 3d e3 03 8b bc 97 f0 fa bc d8 c6 4b bd
       0.06614582 -0.016969627 -0.0306323 -0.04975018
000010 68 45 44 bb 7a d9 dc 3d 30 a9 2a 3d 64 78 85 bd
       -0.0029948596 0.10783668 0.041665256 -0.06517103
000020 12 96 74 bd 76 00 dc bc e1 c8 76 3d 88 d6 cb bb
       -0.05971343 -0.026855689 0.060250167 -0.0062206425
000030 2c e9 57 3b 8b a7 a7 3d 20 25 aa 3d b7 ec f0 bc
       0.0032945378 0.08186253 0.08307862 -0.02940975
000040 90 47 82 bd 04 67 12 bd ae 88 00 bc e9 51 08 3c
       -0.06361306 -0.035742775 -0.007845087 0.00832031
000050 76 f6 36 bc 9b b5 01 bd 87 11 88 bc 6c 55 3a 3d
       -0.011167159 -0.031667333 -0.01660992 0.04549162
000060 af 11 95 bd c5 9e 8a bd 26 24 97 ba 43 8c 16 3d
       -0.072787635 -0.06768564 -0.0011531159 0.036754858
000070 22 fb 0f 3e 9a a9 0d 3e 19 75 39 3d 01 80 35 3d
       0.14060643 0.13834229 0.04527769 0.044311527
000080 55 e8 75 3c 86 0e 73 bb 75 17 3d 3c 87 24 95 3d
       0.015009006 -0.0037087514 0.011541237 0.07282358
000090 b3 9c 71 3c 6a 9e c6 bc 52 89 44 bc 68 97 95 bd
       0.014746833 -0.02424546 -0.01199563 -0.07304269
0000a0 ef 44 f0 3c e6 4e eb bc 28 c9 20 bd 96 e6 fe bc
       0.029329745 -0.028724145 -0.039254338 -0.031115811
0000b0 29 fd e0 3b 42 08 49 bc 1b 46 4e bd 4e 6a a2 bb
       0.0068661165 -0.012270035 -0.050359827 -0.00495652
0000c0 96 7a 9e 3d f5 29 e7 3d af ed 9b 3d 99 4f bf 3c
       0.07738225 0.112872995 0.07613694 0.023353385
0000d0 4a 8c 90 bd ba 8e 44 bd 84 82 5c 3c 1d 93 95 bd
       -0.07058008 -0.047987677 0.013458852 -0.0730345
0000e0 b7 53 82 bd 37 82 4e 3c 2a 61 14 bd 1e bf 26 bd
       -0.063636236 0.012604288 -0.036225475 -0.040709607
0000f0 74 f9 2c 3b 38 ac ac 3c b2 da 94 3b 72 37 6c 3d
       0.0026393803 0.021078214 0.004542672 0.057670064
000100 e5 26 cc ba 54 54 6c 3d eb b6 a0 3d 86 9d 59 3d
       -0.0015575556 0.05769761 0.07847389 0.05312874
000110 57 03 fb bc e0 28 92 bd 16 9b 50 bc db 07 1f 3c
       -0.030641241 -0.071367025 -0.012732288 0.009706463
000120 eb 7e 0c bd 3d c6 2a 3c 1d 16 bd 3c 47 5f a0 3c
       -0.034300726 0.01042324 0.023081833 0.019576682
000130 57 15 8c bc a9 fd c6 3b 7b 98 e9 3c ed e2 98 3d
       -0.01710002 0.006072719 0.028515091 0.07465158
000140 4d ad 27 bb c4 e0 25 bc f3 4f f9 bc 1c be e4 3c
       -0.0025585473 -0.010124389 -0.03043363 0.027922682
000150 d6 ac 31 3d 72 2d 41 3c 61 95 9f 3c 04 d5 2c bc
       0.04337772 0.01179062 0.01948041 -0.010548834
000160 d1 6f 4e 3c c3 83 58 bb f0 85 85 3d 0a de 78 3d
       0.012599901 -0.003303752 0.06519687 0.060758628
000170 bc aa 26 3a 06 ac 08 bd bf 25 ba 3c 9e 47 be bb
       0.0006357839 -0.03336718 0.022723077 -0.0058068773
000180 fa d4 3a 3d f7 7b 60 bd 72 da 37 bd 89 83 8c bc
       0.045613267 -0.054805722 -0.04488606 -0.017152565
000190 9b 54 a0 3a bb 71 23 3d 6b 2f d3 3c e3 7d c8 bb
       0.0012232246 0.039903384 0.025779447 -0.0061185225
0001a0 f0 75 8c 3c 86 7d 7c bd 7a e1 72 bd 41 31 0c bc
       0.01714608 -0.061643146 -0.059297062 -0.008556665
0001b0 3a 5a 83 3c 59 74 97 3d ce df 5d bd e8 c5 6e 3d
       0.016034234 0.073952384 -0.054168515 0.058294207
0001c0 73 a3 80 3d 2e 36 a8 bc b0 ad 93 3c db b5 15 3d
       0.062811755 -0.020533647 0.018027157 0.036550384
0001d0 9f 09 a2 3d 02 bf 34 3d fa 3d 4a 3c 82 13 ac bc
       0.07911991 0.04412747 0.012343878 -0.021005396
0001e0 73 2f a4 bc 43 fe c5 3c 28 56 43 3d 3a 16 c0 bc
       -0.020042157 0.024169093 0.047689587 -0.023448098
0001f0 e2 04 43 3d 8f 07 c6 3d cb 59 f8 3d cc e6 8f 3d
       0.04761208 0.096694104 0.12126502 0.07026443
000200 f2 52 18 bd 48 b0 90 3d fa 03 8e bc 07 38 9a bb
       -0.037188478 0.07064873 -0.01733588 -0.004706386
000210 f4 ce df 3c 43 26 89 bd 42 a7 50 3c 56 08 3c 3d
       0.027320363 -0.06696751 0.01273519 0.045906387
000220 73 1d 43 3d bb cb 54 3d 12 6c 8f bd 74 cf 92 bd
       0.047635507 0.051952105 -0.07003035 -0.07168475
000230 97 c6 55 bc 42 a6 7e 3d b6 60 b5 bc 64 12 bb bc
       -0.013047836 0.062170275 -0.022140842 -0.022835918
000240 fd de 9c bd e6 1a b1 bc 43 6c bd bb 54 e3 89 bd
       -0.07659719 -0.021619271 -0.005780728 -0.067328125
000250 4f 61 24 bd 65 75 b7 bd 25 1e 03 3d 4b 85 86 3d
       -0.040131863 -0.08957938 0.03201117 0.06568392
000260 4e 23 d5 3d 21 24 d6 3d de bf 10 3e fd 8a ff ba
       0.104071245 0.1045611 0.14135692 -0.0019496378
000270 ab 19 10 bb 21 7b b7 bc 70 14 8b bb d0 fb b9 3c
       -0.0021987956 -0.02239758 -0.0042443797 0.022703081
000280 c2 9f f5 bc 07 c3 d8 3c 43 11 6e bb bb 9e 9a bb
       -0.029983405 0.026460184 -0.0036326207 -0.004718629
000290 57 5f e5 3b fb 05 95 bc dc 27 97 b7 58 90 86 3d
       0.006999891 -0.018191328 -1.8019164e-05 0.065705
0002a0 b9 94 23 3d fd e1 75 3d 71 e2 51 bd 33 a2 2e 3b
       0.039936755 0.060029972 -0.051241342 0.0026646971
0002b0 25 33 b5 bc d6 94 f2 bb 5c a4 ee 3c de a0 17 3d
       -0.022119114 -0.0074029965 0.029131107 0.03701865
0002c0 f3 ff 86 bb 3a 7d 27 bd cf 81 1b 3d a3 c0 f8 bc
       -0.004119867 -0.04089091 0.037965592 -0.030365294
0002d0 f9 e1 39 bd 9a 47 21 bd 08 aa ec bb f3 11 d8 3d
       -0.04538152 -0.039374925 -0.0072224177 0.105502985
0002e0 01 92 7f 3b dc f9 10 bd 70 59 86 3c 06 c6 96 3c
       0.0038996937 -0.035394534 0.016400069 0.018404972
0002f0 6d a9 8d b9 24 8e 1c 3d 0f e5 9c bd c0 28 99 3c
       -0.00027019848 0.038221493 -0.07660877 0.018696189
000300 49 aa 73 3c ad 51 5c 3d df cd 84 3d a6 bb c3 3c
       0.014872142 0.05378883 0.06484579 0.023893189
000310 71 5c 74 3c 52 3f e6 3c 66 71 e6 3a e8 46 b0 bd
       0.014914618 0.028106365 0.0017581403 -0.08607274
000320 a8 bc df 3c 1e 98 21 bd a5 27 89 bd f9 30 54 bd
       0.027311638 -0.03945171 -0.06697015 -0.051804516
000330 08 22 4f bc ca ca 0e 3d e1 3b e3 bb 35 4a 1a bd
       -0.012642391 0.034861363 -0.0069346284 -0.037668426
000340 42 f0 b4 bd e6 72 52 bd 43 9d 70 bc 0b 02 5f bd
       -0.08834888 -0.051379107 -0.014685932 -0.054445308
000350 a3 5e e0 bc 76 05 04 3d 6c 35 96 3b 34 f3 1b 3e
       -0.027388876 0.03223177 0.004584005 0.15229493
000360 59 2e b3 3c bc 5c 55 3d 2a ae d0 3d af 5b 0f 3d
       0.021872686 0.05209039 0.10189469 0.034999546
000370 88 93 ae bd b1 f3 a5 bc 24 7b 4e 3d 57 04 7c 3d
       -0.08524233 -0.020257803 0.050410405 0.061527576
000380 e1 55 e2 bc 3d c8 a1 bb dc f1 8b 3d 1b 99 bf 3c
       -0.02762884 -0.0049372003 0.068332404 0.023388436
000390 2a 28 29 bc 2e a7 15 bc 4a 97 86 bd bb 48 6f bd
       -0.010324517 -0.009134097 -0.06571825 -0.05841897
0003a0 f4 f8 8f bc 1c ce 34 bc e5 a8 f5 3c 1d aa ac 3c
       -0.017574765 -0.011035468 0.029987762 0.02107721
0003b0 83 59 b5 bc ec 50 a5 bd 35 83 ac 3b ba 8f 37 3c
       -0.02213741 -0.08072075 0.0052646645 0.011203701
0003c0 22 ef 1a ba 88 24 fd 3c 19 26 7e bd 20 62 05 3d
       -0.00059102674 0.030901209 -0.06204805 0.032564282
0003d0 6b da 80 bc 90 5a d7 bb c4 16 0e 3d e3 8b e8 3c
       -0.01572915 -0.006572075 0.03468968 0.028387016
0003e0 85 d1 69 bc 42 b8 1b 3c 76 ff 57 3c a5 c6 33 bc
       -0.014271145 0.00950438 0.013183465 -0.0109726535
0003f0 05 ad 7c bc ab 49 e0 3d e6 2a 41 3b a4 44 0e bd
       -0.01542211 0.10951551 0.0029475032 -0.03473343

fc1.bias f4 [120]
000000 61 b4 1f 3d 6f 3e 8a bc 8e 56 66 3c 46 26 8f bc
       0.038990382 -0.016875474 0.014058722 -0.017474305
000010 21 48 2e 3c 97 6a 92 3a 82 11 64 3d 85 cf ce bc
       0.010637314 0.0011170682 0.05568076 -0.025245437
000020 5d 63 39 3d 72 04 7c 3c 9a 78 11 ab b3 9f 5b bb
       0.045260776 0.015381919 -5.1681717e-13 -0.0033511936
000030 44 de 33 bc 15 d7 01 3d fc 1c 7f 3c 49 3d 1e bb
       -0.010978285 0.03169926 0.015570875 -0.0024145416
000040 55 22 ee a9 4f d0 82 3b 97 69 9a bc 8f c0 8b bc
       -1.0575279e-13 0.0039921175 -0.018849177 -0.017059593
000050 8a 1f 35 3d a0 52 50 b8 bc 43 d1 ae f0 43 44 bc
       0.04421953 -4.9668015e-05 -9.516252e-11 -0.011979088
000060 ac 98 94 3c e8 d5 31 ac 1d e3 87 3a 7d 2d 3c ab
       0.018139206 -2.5271955e-12 0.0010367368 -6.6854145e-13
000070 d1 6d 8f bb c2 67 af b3 88 eb bd b9 5e 2b 1f bd
       -0.004377105 -8.167946e-08 -0.00036224374 -0.038859718
000080 be f8 25 3d af 86 0a bc 37 f4 10 3d 57 d4 d0 3c
       0.040520422 -0.008454963 0.03538915 0.025491877
000090 4f 61 ac bc e5 29 30 ae 4a 99 06 3d 5a 47 03 bc
       -0.021042494 -4.0054977e-11 0.03286103 -0.008012617
0000a0 62 5c 92 b8 6f 55 c3 3c a6 ee 02 3c 56 32 11 3d
       -6.97903e-05 0.023844449 0.0079914685 0.035448395
0000b0 07 1d d0 3c d3 0c 5d bc ac ba c1 ba 5d 4f 03 ac
       0.025404466 -0.013491827 -0.0014780364 -1.8660275e-12
0000c0 cc 77 84 bc a4 dc 0e 3c 2e 1a 97 bc 14 10 0a ba
       -0.016170405 0.008719597 -0.0184451 -0.0005266678
0000d0 52 42 f2 3c 68 57 2c 3d e7 76 af 3c 42 b4 5c b6
       0.02957264 0.042075545 0.021419002 -3.2887478e-06
0000e0 ea ab df a7 2c 35 4a 3d 7a fe 11 3c 2c 86 d2 bb
       -6.2081323e-15 0.049367115 0.00891077 -0.006424686
0000f0 4d 14 dd bc 80 27 84 3b 54 87 89 3a 41 c6 ee 3c
       -0.02698722 0.004033029 0.0010492601 0.02914727
000100 ed 9a d8 b8 48 9b 29 3d c7 83 33 3c dc 21 3f bb
       -0.0001032854 0.041407853 0.010956711 -0.002916447
000110 41 2c a8 3a 67 4b 44 3b 02 fd d5 3c 5a 03 2d 3d
       0.0012830572 0.002995217 0.02612162 0.042239524
000120 ea 7d 8e 3c fb 13 ad 3c 5b a8 59 ba ae 38 cf bc
       0.017394025 0.021127691 -0.000830298 -0.025295582
000130 63 06 2d 3d 4e aa b9 3c 75 d5 84 b5 36 39 ce 3c
       0.04224242 0.022664215 -9.89689e-07 0.025173765
000140 d9 4c 76 3c d8 5c d1 bb 3b 88 01 bd a9 09 54 3b
       0.01503297 -0.0063892417 -0.03162406 0.003235439
000150 d0 30 1f 3d 18 cf 84 bc 90 ac 50 3d 62 2f f9 ac
       0.03886491 -0.016212031 0.05094582 -7.082266e-12
000160 58 f8 36 26 41 11 1d 3d 6f 96 10 3d a0 50 ce 3c
       6.3480503e-16 0.038346533 0.035299715 0.02518493
000170 e2 95 9a bb aa 6b ef 3c 73 67 35 3c dc b8 7d 3c
       -0.0047175745 0.029226143 0.0110720275 0.015485968
000180 62 65 3d a6 27 ad cc bc 23 2e d3 3c 55 db ae b6
       -6.5709947e-16 -0.02498491 0.025778836 -5.2111377e-06
000190 1d 73 08 3c 9b 04 98 3b 59 36 ff bb a6 78 e3 3c
       0.008328226 0.004639221 -0.007788461 0.02776749
0001a0 0e 0a b2 bc 5a 14 3e 3d 70 12 e7 3c 26 7a db bb
       -0.02173331 0.046406128 0.028207034 -0.006697911
0001b0 7e 10 b4 bc f4 b6 6f 3b ff 8e 14 bb 2c 03 dd bb
       -0.02198052 0.0036577554 -0.002266824 -0.006744763
0001c0 6a ae 03 a7 26 9d 9c bc 8d 5c 8d 3c e2 7d a4 3c
       -1.8274452e-15 -0.019117903 0.017256046 0.020079557
0001d0 8e 1a 45 b7 b5 f4 fd bb 37 87 5f 3d ae 7b fd 3c
       -1.1748298e-05 -0.0077501186 0.05457231 0.030942764

fc2.weight f4 [84, 120]
000000 19 84 2c 3e 5a bd 15 3e c5 1a 56 bd 1f 4b 54 3d
       0.16847266 0.14623013 -0.052271623 0.051829454
000010 7b 8f 00 be 7a 47 a6 bd b4 f6 2e bd 0b 24 a4 bd
       -0.12554733 -0.08119102 -0.042715743 -0.08014687
000020 10 e8 d1 3d 79 c9 74 bd e1 53 3a ba ec 40 99 bd
       0.102493405 -0.05976245 -0.0007107836 -0.07483086
000030 79 80 ee bd b1 3d 45 3d df 2a 29 3d 71 b8 7f 3a
       -0.11645598 0.048154537 0.04130065 0.0009754962
000040 7a 83 16 ba 6e 90 11 bd 16 2a 16 bc 93 a4 a8 3d
       -0.00057416374 -0.03553813 -0.0091653075 0.08234515
000050 36 00 37 bd 81 7d be 3a fa ae 7c 37 ea 4d 53 3c
       -0.044677936 0.0014533253 1.506111e-05 0.012896994
000060 e9 2c 38 bd 58 7f 17 bb 8f 8f 35 3e a0 d0 75 b8
       -0.044964705 -0.0023116674 0.17730545 -5.860685e-05
000070 c2 f4 2e 3d e4 b5 05 3c 06 63 bb bb 95 25 b5 3d
       0.042713888 0.008161042 -0.0057185916 0.08845059
000080 25 6c ca 3b 19 d7 38 3d 25 59 12 be 3a 14 e6 3d
       0.0061774426 0.045127008 -0.14291818 0.11234327
000090 2c d8 f2 ba e0 f8 0c 3b 26 48 18 3d 19 54 9c bc
       -0.0018527559 0.0021510646 0.03717818 -0.01908307
0000a0 f4 1f d1 3d c6 94 84 3d f3 c0 09 3d 1c 80 b5 bd
       0.10211173 0.06473689 0.033631276 -0.088623255
0000b0 d0 58 c7 3d 6d 9e 49 3d 11 44 66 bd c6 98 27 87
       0.097337365 0.049223352 -0.056217257 -1.260858e-34
0000c0 da f8 81 3c 2f 68 c4 3d 3f c4 82 bd e0 ce 01 bb
       0.015865732 0.09590184 -0.06385087 -0.0019807145
0000d0 45 72 0f bd e9 da ea 3d 12 13 2e 3d fc 65 c3 3c
       -0.035021085 0.11467535 0.042498656 0.02385234
0000e0 13 5d 90 80 32 42 61 bd 92 64 80 3d f7 cb a7 3d
       -1.32577e-38 -0.05499477 0.06269182 0.081932
0000f0 8a 83 8b 3d 0b 07 33 3c 92 27 bf 3c ce ae a6 3d
       0.068121985 0.010926972 0.023334298 0.0813881
000100 5e 8a 65 3c 7f 31 fd bc cb a0 c0 3d 0f c7 4d 3d
       0.01401004 -0.03090739 0.09405669 0.050238665
000110 93 1d c2 3d 17 0f 5f 3d c5 b2 b2 3d 7f 1b 20 3d
       0.09478297 0.05445775 0.08725504 0.039088722
000120 10 26 17 be 2e 27 68 bb ce 0a a9 3c 65 25 fe bb
       -0.14760613 -0.0035423744 0.020635035 -0.0077559226
000130 24 90 14 3e 65 3e 95 bd 0c 22 9e 3b 49 5f 61 3d
       0.1450811 -0.072872914 0.004825836 0.05502251
000140 11 ca 0e bd 65 1f be bd 06 57 28 b8 66 73 8d 3d
       -0.034860674 -0.09283332 -4.0135368e-05 0.06906776
000150 23 ab b2 bb 53 57 62 3d 29 8b 03 bd 66 8c 67 ba
       -0.00545253 0.05525906 -0.032115135 -0.00088328717
000160 d6 aa aa 3b 66 37 90 bd 61 3b 83 bc 29 4e 3d 3e
       0.0052083535 -0.070418164 -0.016019525 0.18486847
000170 79 c8 2d bd b9 d3 1c bd 51 84 c2 bd 66 99 d9 bd
       -0.042427514 -0.038287852 -0.094978936 -0.106249616
000180 be 1b 99 bb 70 05 b4 bd c4 4c dd bd bf 1c 67 3b
       -0.0046724966 -0.087900996 -0.108056575 0.0035264937
000190 f8 f3 14 3e 93 1a 0c 3e 3c e7 c1 bc cd c1 16 3d
       0.14546192 0.13682012 -0.023669831 0.036805917
0001a0 7e 41 01 bb 85 cd bc bd 33 16 b6 3d 76 0a c2 3d
       -0.0019722874 -0.09218887 0.08890953 0.094746515
0001b0 da bd d8 3d 23 63 1d bc 41 69 f0 bd c4 00 44 3d
       0.10583086 -0.009606156 -0.117388256 0.047852293
0001c0 d9 b7 82 bb 3b 59 db 3d a1 8c 8d 3d fb 74 30 3e
       -0.0039892015 0.10710379 0.069115885 0.17232125
0001d0 69 7c 1a 38 ea bd bd 3d a3 92 8a bd cc 55 09 3e
       3.6832327e-05 0.09264739 -0.0676625 0.13411635
0001e0 53 b8 6e bb 19 7f fd 3d c4 cf 07 bd b0 77 b1 bc
       -0.0036425784 0.123777576 -0.033157125 -0.021663517
0001f0 e7 5c 09 3d c2 d3 83 3d 3e 32 01 be 47 a6 fa 3d
       0.033535864 0.06436874 -0.12616822 0.12238746
000200 4d cc 51 bc 8a 85 4c bb 08 e1 80 3a 8f 94 ee 3d
       -0.012805057 -0.0031207525 0.000983269 0.11649429
000210 f6 fc f7 3d a0 02 71 3d 92 aa 4d be a3 57 a2 3d
       0.12108795 0.058840394 -0.20084599 0.07926872
000220 f7 5e 16 3b b2 21 30 bd 55 d7 7d 3d 38 81 6b 3d
       0.0022944787 -0.043000884 0.061972935 0.05749628
000230 da de 32 be ae 23 1d bc ea 83 81 3a 06 8c a8 3d
       -0.17467824 -0.009591026 0.0009881232 0.08229832
000240 a6 18 f9 3d 02 96 e8 bb 13 b6 35 3d bb c5 98 b9
       0.121629044 -0.0070979604 0.044363093 -0.0002913902
000250 17 74 d7 bd cd 96 09 ba 5d 5e 70 bb c2 07 a9 3d
       -0.10520189 -0.00052486063 -0.0036677339 0.08253433
000260 6c 14 27 3c 9b 0b e8 bc a2 a0 1d 3d 71 99 81 3c
       0.01019774 -0.028325846 0.03848327 0.015820237
000270 ca ff 2d 3d e0 82 2d bb e2 81 90 bd c6 bb c7 bd
       0.042480268 -0.0026475713 -0.07056023 -0.09752612
000280 d1 33 52 bb 12 2e b3 3d 3b ae a0 bd 01 42 98 3d
       -0.0032074342 0.087490216 -0.07845732 0.07434464
000290 92 f4 84 bd 49 d4 28 bd e6 ca 1c 3d c6 65 72 26
       -0.064919606 -0.041218076 0.038279437 8.4098545e-16
0002a0 c5 14 ee bd 8b e7 2b 3d 2c d2 84 3d aa 38 c1 3a
       -0.11625055 0.041968863 0.064853996 0.0014741619
0002b0 be c5 c3 3b e7 41 9b bd ca 50 e6 3c 8d 8e 00 3c
       0.0059745004 -0.07580929 0.028114695 0.007846487
0002c0 f0 77 c7 a1 9d 73 c3 bd f1 7c 33 bd d9 55 e6 bc
       -1.3516512e-18 -0.09543536 -0.043820325 -0.028117107
0002d0 34 59 ae 3d cf fa 8e bc 88 e2 b7 ba bb f3 12 bd
       0.08513108 -0.01745358 -0.0014029304 -0.03587697
0002e0 d7 02 df 3b 37 14 57 be 6e 56 90 bc d6 a7 19 3d
       0.0068057585 -0.21003805 -0.017619338 0.037513576
0002f0 99 93 e8 3d ae 5a 0c 3a 4c af 09 bc 5d c2 82 3d
       0.11356277 0.00053540885 -0.00840361 0.06384728
000300 09 dc ed 3d 71 0c 85 3d 53 38 65 3d 4f 74 08 3e
       0.11614234 0.06496514 0.055961918 0.13325618
000310 94 f7 fc 3b a7 9e 73 3d ce 31 85 3c 75 61 89 bd
       0.0077199433 0.059477475 0.0162591 -0.067080416
000320 e3 d5 80 bd 28 89 a4 bd ed 5f 9d 3d 73 84 04 3c
       -0.06290796 -0.08033973 0.07684312 0.008088219
000330 96 b9 5d 3d 67 45 14 3e 6f 36 03 be 2d 75 ef b9
       0.054132067 0.144796 -0.12813734 -0.00045672935
000340 d3 d7 7a 39 5a e8 11 3e 68 9e 38 bd d1 e2 86 bc
       0.00023922259 0.14248791 -0.045072943 -0.016465576
000350 4f 29 0d 3d 64 ec e0 bd 21 99 39 3d cf f4 8c 3d
       0.034463223 -0.10982588 0.04531205 0.06882631
000360 2e 6e fb 38 e9 05 8c bc 89 ce 47 bc 57 c1 a9 ba
       0.00011989135 -0.017092662 -0.012195238 -0.0012951297
000370 4c c2 48 3d 72 a1 87 3d 31 22 04 be e8 79 98 3d
       0.04901342 0.0662259 -0.12903668 0.07445127
000380 92 f4 0b 3e c3 90 2a 3d 7a 4d 67 3d 17 50 5f 3d
       0.13667515 0.04164196 0.05647037 0.05451974
000390 f8 7d 14 3e 48 f0 bc bd 95 e7 a0 3d 94 dd 99 bd
       0.14501178 -0.092255175 0.07856671 -0.07512966
0003a0 c6 a0 91 39 1d ca 55 3d 9e 88 5f be b6 04 8d 3d
       0.0002777634 0.052194703 -0.21829459 0.06885664
0003b0 ad 6d ea b7 d4 5f 5a 3d aa 95 45 3d e8 52 f6 3b
       -2.7946046e-05 0.053314045 0.048238434 0.0075172074
0003c0 8f 8f b6 bc cc 4d 59 3c 28 5f 18 3e 73 cd 31 bd
       -0.022285251 0.013263177 0.14880049 -0.043408822
0003d0 a1 83 39 3e 2c 87 3e bd f0 16 c9 3d e1 d0 60 3d
       0.18116619 -0.04651563 0.09818828 0.054886702
0003e0 6a 56 aa 3d 9e e7 86 3c 32 f1 c0 3a 00 7a bd bd
       0.083172634 0.016467866 0.0014720319 -0.09251785
0003f0 73 b9 32 3d 13 49 d8 bc e5 58 7a bd 45 8c 0a 3b
       0.04363389 -0.026402032 -0.061119933 0.0021140736

fc2.bias f4 [84]
000000 fb 40 57 3d e7 8a 1b 3d ff 76 a9 3d 20 01 3e 3a
       0.052552205 0.037974264 0.0827465 0.00072480924
000010 5a 96 b6 3d ed bc 00 80 a2 44 ba aa 2f 22 0e 3d
       0.08915396 -6.7774e-41 -3.308786e-13 0.03470057
000020 e8 3c 66 3c 50 27 4f 3d 5c fb 0e bc 9e 17 a6 3d
       0.014052607 0.0505746 -0.008726921 0.08109973
000030 c2 a1 54 3d 81 b8 91 3d 79 5f 8a 3d 19 84 97 3b
       0.051912077 0.071152695 0.06756491 0.0046239016
000040 41 7c 27 3c db 46 83 37 ae 71 19 bb ad 40 b8 ba
       0.0102224955 1.5649412e-05 -0.0023413706 -0.0014057361
000050 a8 38 dd 3d 92 4c 42 bc 9a 03 49 bb 66 2f 0e 3d
       0.10801822 -0.011859076 -0.0030672313 0.03471317
000060 e9 4a 69 3d c8 63 90 bc 5f b5 60 3c cb ec 8c bc
       0.056956206 -0.017625704 0.013715117 -0.017202755
000070 7b a8 99 3b 9e a6 3f bc 84 fb a2 3d 19 9a 8b 3d
       0.004689274 -0.0116974395 0.07958129 0.06816501
000080 d1 04 3c 3d 0f bf 73 3d e0 76 b4 3d 93 56 81 3d
       0.04590303 0.05950838 0.08811736 0.06315341
000090 8d 47 c2 a3 99 30 ba bc f9 17 a5 3d b8 23 6a 3c
       -2.1063825e-17 -0.022728251 0.08061213 0.014290743
0000a0 e4 cd 8e 3d 17 6e c8 3a 3a 98 8c b8 a8 3e 1f bd
       0.06972864 0.0015291598 -6.7040746e-05 -0.038878113
0000b0 0f b7 3d bc 2f ef 90 3d 7d 44 05 39 b2 5d 62 3d
       -0.011579289 0.07076871 0.00012709382 0.055265136
0000c0 4d 95 f4 bc a4 4a 8c 3d b6 e1 2e 3d da b7 1c a0
       -0.029856348 0.06850174 0.042695723 -1.3274545e-19
0000d0 64 e4 a6 bc 06 88 49 3d 2e 14 b1 3d 1f 73 2b 3d
       -0.020372577 0.049201988 0.08646427 0.041857835
0000e0 7a 6a 9a 3b fb a8 13 00 0b 34 40 94 f3 b5 70 3d
       0.0047124 1.805493e-39 -9.7037865e-27 0.05876727
0000f0 35 be c2 3c 07 74 b3 bc 16 0e 30 bc 9e 11 e7 b0
       0.023772338 -0.021905912 -0.010745546 -1.6812469e-09
000100 b0 29 8d 3d aa 13 81 ab 62 1c 45 b7 e5 fe 46 bd
       0.06892717 -9.171459e-13 -1.1748723e-05 -0.04858293
000110 46 b5 7f 3c 7d 78 04 bd 66 01 bf 3d ec db 5a 3c
       0.015607184 -0.03234147 0.093264386 0.0133580975
000120 92 c2 c2 b4 ad af e3 ba 31 ff ad 3c 5c 7c 43 3d
       -3.6276884e-07 -0.0017371081 0.021239849 0.04772602
000130 9d 8b 23 bd 21 4b 34 3d a7 af f7 bb ca 43 84 b6
       -0.039928067 0.04401696 -0.007558781 -3.9417982e-06
000140 db 99 a7 3c 6b 33 fb bc 0c f7 ef bc 60 0a 5c 3d
       0.020459106 -0.030664166 -0.029292606 0.053720832

fc3.weight f4 [10, 84]
000000 ff b7 63 be 98 f1 cb bd b3 7c 09 3d 24 b8 01 bc
       -0.22238158 -0.0995819 0.033566188 -0.007917438
000010 8d c4 14 3e b0 b3 5a 3a 1a 77 4b b7 1b 4e c2 3d
       0.14528103 0.00083428156 -1.2127473e-05 0.09487554
000020 0a 52 0a 3c a2 c8 14 3d 09 35 45 3d 47 ec 4a 3d
       0.008442411 0.03632415 0.04814628 0.049541738
000030 59 af 70 bd 85 64 30 3d 24 de 21 3e 68 4e 10 be
       -0.058760975 0.043064613 0.15807396 -0.1409241
000040 5e 09 ed 3d 3e b0 8a 3b 69 e0 ef 3d 9b d5 88 27
       0.11574052 0.0042324355 0.11712725 3.7979174e-15
000050 17 12 05 3e d2 e9 44 3d a6 95 14 3c 23 d7 64 3c
       0.12995182 0.04807455 0.009068882 0.013967308
000060 b7 3a 99 3d 17 0d 63 be 9d 83 0f 3e c5 4b ac bd
       0.07481902 -0.22172962 0.1401505 -0.084128894
000070 17 1a d6 bc e9 21 db bd 25 4b fb bc 48 6f 05 be
       -0.026135487 -0.10699827 -0.03067548 -0.13030732
000080 00 b8 8e bd b6 4f 77 bd a5 85 bb 3c c7 96 c8 3d
       -0.06968689 -0.060378753 0.022890875 0.097943835
000090 c2 0a 18 a2 24 58 57 3d 23 e1 d4 3d 19 4c eb bd
       -2.0605536e-18 0.05257429 0.10394504 -0.11489124
0000a0 92 e8 31 be 36 03 93 37 92 50 56 ab e4 f6 c1 3d
       -0.17373875 1.752526e-05 -7.6139886e-13 0.09470919
0000b0 a1 8a 7a ba fa 2d 35 bc 4a 1a bf 38 4c 93 ca bd
       -0.00095574005 -0.011058325 9.1124864e-05 -0.09891376
0000c0 f2 12 56 3d 2e 9b 3a be 06 14 20 be 4c cc 00 00
       0.05226416 -0.18223259 -0.15632638 7.3288e-41
0000d0 f7 3f 37 bd 5f f1 8a 3c 6b 67 cb bd cb 74 c9 bd
       -0.044738736 0.016960798 -0.09931835 -0.098367296
0000e0 05 2d 1f 3d 0b b5 1f bb 08 3c 5c 12 db c6 cc bd
       0.038861293 -0.0024369385 6.9493754e-28 -0.09998866
0000f0 ec c1 a7 bd ca ee 1e 3e bf 7c a0 3d 4f 14 00 80
       -0.081912845 0.15520778 0.078362934 -7.285e-42
000100 56 c5 74 3b ed c9 00 80 88 94 c5 39 61 f2 fc 3d
       0.0037349067 -7.2437e-41 0.00037685432 0.123509176
000110 48 1a 3c 3d 4a af 26 3c 4e 98 53 3d 43 1c db bd
       0.0459235 0.010173628 0.05165892 -0.1069875
000120 08 96 a8 a6 e4 a2 0d be e5 d1 ef bd c8 de 87 bc
       -1.1698008e-15 -0.13831669 -0.11709956 -0.016585723
000130 d6 86 df bd d2 8f 19 bd de 24 14 be 5a 00 09 2c
       -0.1091439 -0.037490673 -0.14467189 1.9469066e-12
000140 14 05 ab 3d 77 52 13 be 61 14 96 3c 30 c9 aa bc
       0.08350578 -0.14386927 0.018320264 -0.020847887
000150 d0 cd e7 3c b2 15 2b bd b6 f0 9c 3d 8f cc 12 3a
       0.028296381 -0.041768737 0.076630995 0.00055999396
000160 9d 3c af bd fb 60 87 3a 1a 2f 3e b1 b7 a1 09 3e
       -0.08556483 0.0010328585 -2.7675413e-09 0.13440596
000170 19 5f 27 bc 91 9e 18 3e f3 07 b4 bd 93 22 cf 3d
       -0.010215544 0.14904238 -0.08790579 0.101140164
000180 c1 e6 66 be 69 db 9e bd e8 d7 c2 3d f4 ca 7c bd
       -0.22548963 -0.07756693 0.09513837 -0.06171699
000190 00 4a 49 be 51 b3 3b b7 97 3a da 3d c8 29 1b b9
       -0.19657135 -1.1187819e-05 0.106557064 -0.00014797517
0001a0 c6 bc ba 3d 11 7a 0c 3e 6c 2f 8d 3b 20 22 a8 bd
       0.09118037 0.1371844 0.0043086316 -0.08209634
0001b0 1c de 99 bd f7 8f 86 bc 1c 17 a3 3c f2 02 22 3d
       -0.07513067 -0.01642607 0.01990848 0.03955359
0001c0 0a 96 c0 38 bf 95 92 3d 64 48 0e 3e bb 5b 45 bc
       9.1832204e-05 0.07157468 0.13894802 -0.012045796
0001d0 8d c8 16 be b9 33 91 3d d0 82 ec bd d8 50 38 be
       -0.14724942 0.070899434 -0.11548388 -0.1799959
0001e0 23 e1 ad a5 a9 e1 6f 3c f1 0e 3b be 9d 06 8c 3e
       -3.0163275e-16 0.014641204 -0.18267418 0.27348796
0001f0 8d 40 d2 3d 2c 40 4d 32 25 d0 56 b7 64 1a 6b 3d
       0.10266218 1.19471615e-08 -1.2803856e-05 0.057398215
000200 a1 34 47 be 23 d2 62 3d 79 82 ae b8 35 ac d0 bd
       -0.1945367 0.055376183 -8.321269e-05 -0.10189096
000210 1b ac 2f be fa 1b be 3c 26 84 10 bd 51 32 00 00
       -0.17155497 0.0232067 -0.035282277 1.805e-41
000220 91 63 92 3c 96 b9 02 3e 84 7d 06 3e c3 b6 5d bd
       0.017869743 0.12766108 0.13133818 -0.054129373
000230 58 c1 2a be b0 b0 ba 39 8e 8c 9c 96 9c e5 96 bd
       -0.16675317 0.00035608327 -2.5291862e-25 -0.07368013
000240 4e 78 13 3e f8 c7 59 3e 92 b1 eb bc ea 3d 03 80
       0.14401361 0.21267688 -0.028771196 -2.97717e-40
000250 cb 7b 6f 3d 85 84 00 00 30 85 d8 35 0a 76 ab bd
       0.058467668 4.7539e-41 1.6132017e-06 -0.083721235
000260 2e 96 e3 3d 43 22 31 be 7f af 43 3d b9 87 23 3d
       0.11112629 -0.17298226 0.047774788 0.039924357
000270 8b 1c db 38 c8 49 d2 3d 7c 38 73 3d f2 b6 c3 bd
       0.0001044805 0.10267979 0.05938004 -0.095563784
000280 70 25 bb bd 22 30 fb bd a2 7b a7 bd 0b 61 8a 2f
       -0.09138 -0.1226504 -0.08177878 2.5171007e-10
000290 21 b2 05 3e 2e 2b 7c bd f0 1b 28 bc 81 cc a1 3d
       0.13056232 -0.061564617 -0.010260567 0.07900334
0002a0 b5 bf 89 bd f5 dc 5b bd ad b4 0a 3e b3 ae 19 bc
       -0.06726018 -0.053677518 0.13545485 -0.00938003
0002b0 8d 22 d4 3d 80 12 3c 3b 01 46 9d 35 6c e3 69 be
       0.103581525 0.002869755 1.1717785e-06 -0.22840661
0002c0 0d 04 68 bb b1 65 8d bd 1b 15 84 3c f9 df 16 3e
       -0.0035402805 -0.06904162 0.016123345 0.14733876
0002d0 6e 7f cf bd 35 e0 19 3e 39 47 8a bd d5 83 0b 3e
       -0.10131727 0.15026934 -0.06751866 0.13624509
0002e0 f4 de 8e bd 18 3e 97 39 0b 76 b8 3d 5d 14 00 0c
       -0.06976119 0.00028847228 0.0900689 9.866889e-32
0002f0 de 28 88 3d 01 ef c5 bd a4 a3 ab bc ff 2c 45 3d
       0.0664842 -0.09664727 -0.020952053 0.048138615
000300 bb 9b 8c bd e1 83 a3 3d b5 ab 1d 3e 1f c8 d7 3d
       -0.06865641 0.07984138 0.15397532 0.10536217
000310 b1 a5 3d bc 04 73 3a be 55 9d 44 be 71 48 ef 3d
       -0.011575148 -0.18207937 -0.19200642 0.11683739
000320 e2 fc 3a be 06 f9 a9 3c e9 22 96 bd 03 fe c6 3d
       -0.1826053 0.020748626 -0.07330877 0.09716418
000330 80 51 01 a4 df 9a 95 3d e7 95 02 be ef a3 f0 3b
       -2.804145e-17 0.0730493 -0.12752496 0.007343761
000340 49 ae 22 be e1 f1 61 b6 e9 20 fc a5 58 b9 1e 3d
       -0.15886797 -3.3668405e-06 -4.3737332e-16 0.038750976
000350 3c d1 22 3e 9b 87 47 bd cd ec 90 b9 57 35 38 bd
       0.15900129 -0.048713308 -0.0002764225 -0.044972744
000360 ab f9 27 bd 19 bb ab 3d dd e4 28 3d 13 fc da 02
       -0.041009586 0.083852954 0.041233886 3.2176905e-37
000370 e6 da 0b 3d e5 bc 0f be 3a 04 71 3c 12 89 30 be
       0.034144305 -0.14036901 0.01471048 -0.17239788
000380 12 68 73 3c 75 69 a5 bb 2d 45 a0 10 6f 9b 5c be
       0.014856355 -0.005047972 6.3215455e-29 -0.21543668
000390 74 a0 80 bc 6e e6 8d 3d 2a bd 9c bd 17 32 00 80
       -0.01570151 0.069287166 -0.07653268 -1.7969e-41
0003a0 4a 8d a9 bd a4 4a 00 80 45 16 0e 3b 58 7c 47 bd
       -0.08278902 -2.6776e-41 0.0021680754 -0.048702568
0003b0 e3 15 07 be 6f a0 bc bd 6c 80 22 3e 1d 7d 3d bd
       -0.13191943 -0.09210288 0.15869302 -0.046261895
0003c0 89 3d 9e ba 4d ca 11 be bf af ca bc 6c 23 a8 3d
       -0.0012072782 -0.14237328 -0.024742005 0.08209881
0003d0 99 36 04 3e 39 2f 14 3e b6 7e 0c 3d 02 34 30 39
       0.12911452 0.14471139 0.03430053 0.00016804042
0003e0 f0 3d 3d 3d e8 ae 76 3d 7b db 33 3e ca 03 6f bd
       0.046201646 0.060225397 0.17564194 -0.058353223
0003f0 e8 53 52 3d 75 53 78 bd 77 e9 20 be 18 92 24 bd
       0.05134955 -0.060626466 -0.1571406 -0.04017839

fc3.bias f4 [10]
000000 cf b2 8d bd 5a eb 9f bc b8 54 0f 3d a3 76 32 bd
       -0.06918871 -0.019521404 0.034992903 -0.043570172
000010 76 fd bd bb d0 f9 0f bd d2 8a 3a 3d 2d 55 81 3d
       -0.005798037 -0.03515035 0.045542546 0.06315074
000020 01 ce 0e 3e 6c 37 0b bd
       0.13945772 -0.0339884
